…
 - 379s - loss: 0.2693 - accuracy: 0.9347 - val_loss: 0.2867 - val_accuracy: 0.9293
Epoch 6/8
 - 379s - loss: 0.2446 - accuracy: 0.9424 - val_loss: 0.2802 - val_accuracy: 0.9328
Epoch 7/8
 - 380s - loss: 0.2257 - accuracy: 0.9486 - val_loss: 0.2896 - val_accuracy: 0.9340
Epoch 8/8
 - 380s - loss: 0.2173 - accuracy: 0.9523 - val_loss: 0.3144 - val_accuracy: 0.9372
Model: "sequential_1"
_________________________________________________________________
Layer (type)                 Output Shape              Param #   
=================================================================
dense_1 (Dense)              (None, 4096)              16781312  
_________________________________________________________________
dropout_1 (Dropout)          (None, 4096)              0         
_________________________________________________________________
dense_2 (Dense)              (None, 4096)              16781312  
_________________________________________________________________
dropout_2 (Dropout)          (None, 4096)              0         
_________________________________________________________________
dense_3 (Dense)              (None, 4096)              16781312  
_________________________________________________________________
dropout_3 (Dropout)          (None, 4096)              0         
_________________________________________________________________
dense_4 (Dense)              (None, 1024)              4195328   
_________________________________________________________________
dropout_4 (Dropout)          (None, 1024)              0         
_________________________________________________________________
dense_5 (Dense)              (None, 128)               131200    
_________________________________________________________________
dropout_5 (Dropout)          (None, 128)               0         
_________________________________________________________________
dense_6 (Dense)              (None, 47)                6063      
=================================================================
Total params: 54,676,527
Trainable params: 54,676,527
Non-trainable params: 0
_________________________________________________________________
None

Prediction / evaluation of mlp Model... 
shape of y_pred is :  (466817, 1)
F1 score for class  0  is :  0.900259067357513
F1 score for class  1  is :  0.9376669326025877
F1 score for class  2  is :  0.9220665499124344
…
