…
 - 612s - loss: 0.2644 - accuracy: 0.9393 - val_loss: 0.2502 - val_accuracy: 0.9410
Epoch 6/8
 - 612s - loss: 0.2538 - accuracy: 0.9444 - val_loss: 0.2464 - val_accuracy: 0.9440
Epoch 7/8
 - 614s - loss: 0.2462 - accuracy: 0.9492 - val_loss: 0.2554 - val_accuracy: 0.9435
Epoch 8/8
 - 612s - loss: 0.2289 - accuracy: 0.9519 - val_loss: 0.2325 - val_accuracy: 0.9490
Model: "sequential_1"
_________________________________________________________________
Layer (type)                 Output Shape              Param #   
=================================================================
dense_1 (Dense)              (None, 4096)              16781312  
_________________________________________________________________
dropout_1 (Dropout)          (None, 4096)              0         
_________________________________________________________________
dense_2 (Dense)              (None, 4096)              16781312  
_________________________________________________________________
dropout_2 (Dropout)          (None, 4096)              0         
_________________________________________________________________
dense_3 (Dense)              (None, 4096)              16781312  
_________________________________________________________________
dropout_3 (Dropout)          (None, 4096)              0         
_________________________________________________________________
dense_4 (Dense)              (None, 1024)              4195328   
_________________________________________________________________
dropout_4 (Dropout)          (None, 1024)              0         
_________________________________________________________________
dense_5 (Dense)              (None, 128)               131200    
_________________________________________________________________
dropout_5 (Dropout)          (None, 128)               0         
_________________________________________________________________
dense_6 (Dense)              (None, 47)                6063      
=================================================================
Total params: 54,676,527
Trainable params: 54,676,527
Non-trainable params: 0
_________________________________________________________________
None

Prediction / evaluation of mlp Model... 
shape of y_pred is :  (186727, 1)
F1 score for class  0  is :  0.9182879377431907
F1 score for class  1  is :  0.9591219427880044
F1 score for class  2  is :  0.9578947368421052
…
