…
 - 0s - loss: 1.4432 - accuracy: 0.5375 - val_loss: 2.6477 - val_accuracy: 0.2900
Epoch 6/8
 - 0s - loss: 0.9599 - accuracy: 0.7450 - val_loss: 3.3143 - val_accuracy: 0.4000
Epoch 7/8
 - 0s - loss: 0.6372 - accuracy: 0.7925 - val_loss: 3.4284 - val_accuracy: 0.2900
Epoch 8/8
 - 0s - loss: 0.5081 - accuracy: 0.8575 - val_loss: 4.0824 - val_accuracy: 0.3800
Model: "sequential_1"
_________________________________________________________________
Layer (type)                 Output Shape              Param #   
=================================================================
dense_1 (Dense)              (None, 4096)              16781312  
_________________________________________________________________
dropout_1 (Dropout)          (None, 4096)              0         
_________________________________________________________________
dense_2 (Dense)              (None, 4096)              16781312  
_________________________________________________________________
dropout_2 (Dropout)          (None, 4096)              0         
_________________________________________________________________
dense_3 (Dense)              (None, 4096)              16781312  
_________________________________________________________________
dropout_3 (Dropout)          (None, 4096)              0         
_________________________________________________________________
dense_4 (Dense)              (None, 1024)              4195328   
_________________________________________________________________
dropout_4 (Dropout)          (None, 1024)              0         
_________________________________________________________________
dense_5 (Dense)              (None, 128)               131200    
_________________________________________________________________
dropout_5 (Dropout)          (None, 128)               0         
_________________________________________________________________
dense_6 (Dense)              (None, 45)                5805      
=================================================================
Total params: 54,676,269
Trainable params: 54,676,269
Non-trainable params: 0
_________________________________________________________________
None

Prediction / evaluation of mlp Model... 
shape of y_pred is :  (500, 1)
F1 score for class  1  is :  0.1111111111111111
F1 score for class  2  is :  0.0
F1 score for class  3  is :  0.4879725085910652
…
