…
 - 2s - loss: 1.4438 - accuracy: 0.4661 - val_loss: 1.3613 - val_accuracy: 0.4746
Epoch 3/5
 - 2s - loss: 1.4064 - accuracy: 0.4788 - val_loss: 1.3402 - val_accuracy: 0.5000
Epoch 4/5
 - 2s - loss: 1.3716 - accuracy: 0.4958 - val_loss: 1.3058 - val_accuracy: 0.5254
Epoch 5/5
 - 2s - loss: 1.3818 - accuracy: 0.4936 - val_loss: 1.3011 - val_accuracy: 0.5169
Model: "model_1"
_________________________________________________________________
Layer (type)                 Output Shape              Param #   
=================================================================
input_1 (InputLayer)         (None, 512)               0         
_________________________________________________________________
embedding_1 (Embedding)      (None, 512, 128)          6400      
_________________________________________________________________
dropout_1 (Dropout)          (None, 512, 128)          0         
_________________________________________________________________
conv1d_1 (Conv1D)            (None, 508, 64)           41024     
_________________________________________________________________
max_pooling1d_1 (MaxPooling1 (None, 63, 64)            0         
_________________________________________________________________
bidirectional_1 (Bidirection (None, 63, 256)           197632    
_________________________________________________________________
dropout_2 (Dropout)          (None, 63, 256)           0         
_________________________________________________________________
bidirectional_2 (Bidirection (None, 63, 128)           164352    
_________________________________________________________________
dropout_3 (Dropout)          (None, 63, 128)           0         
_________________________________________________________________
attention_with_context_1 (At (None, 128)               16640     
_________________________________________________________________
dense_1 (Dense)              (None, 64)                8256      
_________________________________________________________________
dropout_4 (Dropout)          (None, 64)                0         
_________________________________________________________________
dense_2 (Dense)              (None, 7)                 455       
=================================================================
Total params: 434,759
Trainable params: 434,759
Non-trainable params: 0
_________________________________________________________________
None

Prediction / evaluation of Model <function cnn_lstm_atten at 0x1422b3710>: 
Shape of y_pred (590, 7)
F1 Score per class
{0: 0.0,
 1: 0.7154150197628459,
 2: 0.5333333333333333,
 3: 0.0,
…
 - 0s - loss: 0.8156 - accuracy: 0.6949 - val_loss: 0.9688 - val_accuracy: 0.6864
Epoch 3/5
 - 0s - loss: 0.7965 - accuracy: 0.7267 - val_loss: 0.9269 - val_accuracy: 0.6695
Epoch 4/5
 - 0s - loss: 0.7575 - accuracy: 0.7436 - val_loss: 0.8821 - val_accuracy: 0.6864
Epoch 5/5
 - 0s - loss: 0.6741 - accuracy: 0.7627 - val_loss: 0.9267 - val_accuracy: 0.6695
Model: "sequential_1"
_________________________________________________________________
Layer (type)                 Output Shape              Param #   
=================================================================
dense_1 (Dense)              (None, 512)               262656    
_________________________________________________________________
dropout_1 (Dropout)          (None, 512)               0         
_________________________________________________________________
dense_2 (Dense)              (None, 512)               262656    
_________________________________________________________________
dropout_2 (Dropout)          (None, 512)               0         
_________________________________________________________________
dense_3 (Dense)              (None, 512)               262656    
_________________________________________________________________
dropout_3 (Dropout)          (None, 512)               0         
_________________________________________________________________
dense_4 (Dense)              (None, 128)               65664     
_________________________________________________________________
dropout_4 (Dropout)          (None, 128)               0         
_________________________________________________________________
dense_5 (Dense)              (None, 16)                2064      
_________________________________________________________________
dropout_5 (Dropout)          (None, 16)                0         
_________________________________________________________________
dense_6 (Dense)              (None, 7)                 119       
=================================================================
Total params: 855,815
Trainable params: 855,815
Non-trainable params: 0
_________________________________________________________________
None

Prediction / evaluation of Model <function mlp_train at 0x13a4b8ef0>: 
Shape of y_pred (590, 7)
F1 Score per class
{0: 0.24590163934426232,
 1: 0.8075313807531381,
 2: 0.047619047619047616,
…
